…
==========================] - 0s 142us/sample - loss: 0.6205 - accuracy: 0.6510\n",
-      "accuracy: 65.10416865348816\n"
+      "768/768 [==============================] - 0s 92us/sample - loss: 0.6278 - accuracy: 0.7044\n",
+      "accuracy: 70.44270634651184\n"
      ]
     }
    ],
@@ -1036,7 +1036,7 @@
   },
   {
    "cell_type": "code",
-   "execution_count": 22,
+   "execution_count": 68,
    "metadata": {
     "colab": {},
     "colab_type": "code",
@@ -1053,9 +1053,9 @@
       "=================================================================\n",
       "Dense1 (Dense)               (None, 4)                 36        \n",
       "_________________________________________________________________\n",
-      "dense_6 (Dense)              (None, 3)                 15        \n",
+      "dense_56 (Dense)             (None, 3)                 15        \n",
       "_________________________________________________________________\n",
-      "dense_7 (Dense)              (None, 1)                 4         \n",
+      "dense_57 (Dense)             (None, 1)                 4         \n",
       "=================================================================\n",
       "Total params: 55\n",
       "Trainable params: 55\n",
@@ -1082,16 +1082,16 @@
   },
   {
    "cell_type": "code",
-   "execution_count": 24,
+   "execution_count": 69,
    "metadata": {},
    "outputs": [
     {
      "data": {
       "text/plain": [
-       "<tensorflow.python.keras.callbacks.History at 0x7fb4306ce2e8>"
…
=====================================================] - 0s 68us/sample - loss: 0.5155 - accuracy: 0.7578\n",
-      "accuracy: 75.78125\n"
+      "768/768 [==============================] - 0s 95us/sample - loss: 0.6468 - accuracy: 0.6510\n",
+      "accuracy: 65.10416865348816\n"
      ]
     }
    ],
@@ -1128,7 +1128,7 @@
   },
   {
    "cell_type": "code",
-   "execution_count": 29,
+   "execution_count": 71,
    "metadata": {},
    "outputs": [
     {
@@ -1141,11 +1141,11 @@
       "=================================================================\n",
       "Dense1 (Dense)               (None, 4)                 36        \n",
       "_________________________________________________________________\n",
-      "dense_8 (Dense)              (None, 3)                 15        \n",
+      "dense_58 (Dense)             (None, 3)                 15        \n",
       "_________________________________________________________________\n",
-      "dense_9 (Dense)              (None, 3)                 12        \n",
+      "dense_59 (Dense)             (None, 3)                 12        \n",
       "_________________________________________________________________\n",
-      "dense_10 (Dense)             (None, 1)                 4         \n",
+      "dense_60 (Dense)             (None, 1)                 4         \n",
       "=================================================================\n",
       "Total params: 67\n",
       "Trainable params: 67\n",
@@ -1173,16 +1173,16 @@
   },
   {
    "cell_type": "code",
-   "execution_count": 30,
+   "execution_count": 72,
    "metadata": {},
    "outputs": [
     {
      "data": {
       "text/plain": [
-       "<tensorflow.python.keras.callbacks.History at 0x7fb430342ac8>"
…
+      "768/768 [==============================] - 0s 99us/sample - loss: 0.6468 - accuracy: 0.6510\n"
      ]
     },
     {
      "data": {
       "text/plain": [
-       "[0.639621468881766, 0.6510417]"
+       "[0.6467994749546051, 0.6510417]"
       ]
      },
-     "execution_count": 31,
+     "execution_count": 73,
      "metadata": {},
      "output_type": "execute_result"
     }
@@ -1228,7 +1228,7 @@
   },
   {
    "cell_type": "code",
-   "execution_count": 32,
+   "execution_count": 74,
    "metadata": {},
    "outputs": [
     {
@@ -1241,11 +1241,11 @@
       "=================================================================\n",
       "Dense1 (Dense)               (None, 8)                 72        \n",
       "_________________________________________________________________\n",
-      "dense_11 (Dense)             (None, 8)                 72        \n",
+      "dense_61 (Dense)             (None, 8)                 72        \n",
       "_________________________________________________________________\n",
-      "dense_12 (Dense)             (None, 8)                 72        \n",
+      "dense_62 (Dense)             (None, 8)                 72        \n",
       "_________________________________________________________________\n",
-      "dense_13 (Dense)             (None, 1)                 9         \n",
+      "dense_63 (Dense)             (None, 1)                 9         \n",
       "=================================================================\n",
       "Total params: 225\n",
       "Trainable params: 225\n",
@@ -1273,557 +1273,1223 @@
   },
   {
    "cell_type": "code",
-   "execution_count": 37,
+   "execution_count": 75,
+   "metadata": {},
+   "outputs": [
+    {
+     "data": {
+      "text/plain": [
+       "<tensorflow.python.keras.callbacks.History at 0x186cddd1c88>"
…
+    "2. loss metrics\n",
+    "3. activation functions\n",
+    "4. parameters\n",
+    "5. number of layers/neurons"
+   ]
+  },
+  {
+   "cell_type": "code",
+   "execution_count": 77,
+   "metadata": {},
+   "outputs": [
+    {
+     "name": "stdout",
+     "output_type": "stream",
+     "text": [
+      "Model: \"Nadamclipnorm\"\n",
+      "_________________________________________________________________\n",
+      "Layer (type)                 Output Shape              Param #   \n",
+      "=================================================================\n",
+      "dense_64 (Dense)             (None, 8)                 72        \n",
+      "_________________________________________________________________\n",
+      "dense_65 (Dense)             (None, 8)                 72        \n",
+      "_________________________________________________________________\n",
+      "dense_66 (Dense)             (None, 3)                 27        \n",
+      "_________________________________________________________________\n",
+      "dense_67 (Dense)             (None, 3)                 12        \n",
+      "_________________________________________________________________\n",
+      "dense_68 (Dense)             (None, 1)                 4         \n",
+      "=================================================================\n",
+      "Total params: 187\n",
+      "Trainable params: 187\n",
+      "Non-trainable params: 0\n",
+      "_________________________________________________________________\n"
+     ]
+    }
+   ],
+   "source": [
+    "from tensorflow.keras.optimizers import Nadam\n",
+    "\n",
+    "nadam = Nadam(clipnorm=.7)\n",
…
      "output_type": "execute_result"
     }
@@ -2188,26 +2962,26 @@
   },
   {
    "cell_type": "code",
-   "execution_count": 49,
+   "execution_count": 93,
    "metadata": {},
    "outputs": [
     {
      "name": "stdout",
      "output_type": "stream",
      "text": [
-      "Model: \"sequential_3\"\n",
+      "Model: \"sequential_5\"\n",
       "_________________________________________________________________\n",
       "Layer (type)                 Output Shape              Param #   \n",
       "=================================================================\n",
-      "dense_14 (Dense)             (None, 16)                12560     \n",
+      "dense_74 (Dense)             (None, 16)                12560     \n",
       "_________________________________________________________________\n",
-      "dense_15 (Dense)             (None, 16)                272       \n",
+      "dense_75 (Dense)             (None, 16)                272       \n",
       "_________________________________________________________________\n",
-      "dense_16 (Dense)             (None, 16)                272       \n",
+      "dense_76 (Dense)             (None, 16)                272       \n",
       "_________________________________________________________________\n",
-      "dense_17 (Dense)             (None, 16)                272       \n",
+      "dense_77 (Dense)             (None, 16)                272       \n",
       "_________________________________________________________________\n",
-      "dense_18 (Dense)             (None, 10)                170       \n",
+      "dense_78 (Dense)             (None, 10)                170       \n",
       "=================================================================\n",
       "Total params: 13,546\n",
       "Trainable params: 13,546\n",
@@ -2240,7 +3014,7 @@
   },
   {
    "cell_type": "code",
-   "execution_count": null,
+   "execution_count": 94,
    "metadata": {},
    "outputs": [],
    "source": [
@@ -2255,54 +3029,62 @@
   },
   {
    "cell_type": "code",
-   "execution_count": null,
…
